optimized_params/experiment_params_N30_trotter3.npz (npz, 2698 bytes, 4 tensors)

best_zeta f8 []
4.2
00000000: cdcc cccc cccc 1040

params_vqeKE f8 [105]
1.0365301064255563 1.159367542522077 1.2413377946845137 1.2211227877004063 1.063849885370786 1.4611647738522349 1.2581430207998565 0.9690623511315591
0.9922870871251388 -0.12335028833283293 -0.13853329271695683 0.017220141988657293 -0.1564522359617195 -0.22512923442411262 -0.07421996884788784 -0.06752834815615617
-0.0890856889143677 -0.238355159350236 -0.10367129655895702 0.04569436579986161 0.0757089028894195 0.04159711229580098 -0.012002349968264412 0.058944036520623466
-0.05204474447260171 0.07245734586127266 0.27230198652588744 0.10911564323613208 -0.006900646208475142 0.14351565686380674 0.016604749593165078 0.025457510540263854
0.06070356874388902 0.01659321045486224 -0.05600200776339973 -0.07081172408505702 0.10618981557259963 0.09112061772655396 0.11260688166974032 0.08867628038858513
-0.08510008340756316 0.06941241660921406 -0.01315082979674401 0.18840400241506244 -0.10884673836925415 0.058820037858022235 0.03633121292033399 0.026049263569969887
0.16967733712216168 -0.04757577294244012 -0.17383877511365894 -0.041105530929024234 0.21197715357054603 0.03287505660418267 0.06966734870994003 0.0007197515732404211
0.010650641419627934 0.023725360663105762 0.003090469914211693 0.1813844603694102 -0.059567292755712015 0.27053721559337085 0.12733913927824775 -0.050789788561759155
0.12651539293371525 -0.06370309385325505 0.0017291335816446124 -0.008522414385190125 0.08670407590479166 0.06312728949752111 0.4380253021843526 0.50291332156598
0.43771313971143144 0.4102643067808856 0.626075355150195 0.39712386856570914 0.4297390724617982 0.4688968674917985 0.7058220716537354 0.42153607230782114
0.27540218139135403 0.16103919026656344 0.32735029634677404 0.3037563779147925 0.3166737965488712 0.4386822768593426 0.32715219615887464 0.31070080240371206
1.467038906493835 0.4899307831837532 0.3103730093440074 0.3359771173005238 0.44775431920412134 0.318927049834551 0.4276172298140657 0.5180365393182719
0.39626237244383566 0.3894923308004443 0.3993465303668887 0.39646171529663293 0.3860831557809392 0.31862393954599194 0.3910372614834865 0.3407851182501751
1.5533013309682187
00000000: b4ac c697 a095 f03f c2d1 f2fa c48c f23f
00000010: 0957 f704 85dc f33f 732d 590c b889 f33f
00000020: 8155 1875 8705 f13f 8c33 5c50 ee60 f73f
00000030: a06a 8093 5a21 f43f 25a3 3c0c 8f02 ef3f
00000040: 2442 6ed9 d0c0 ef3f da78 576e e293 bfbf
00000050: f531 d07c 75bb c1bf 01ee b12a 28a2 913f
00000060: 87bb 6b7a a006 c4bf 75cf 9ce5 08d1 ccbf
00000070: d86c e972 1400 b3bf 2133 e2ae 8949 b1bf
00000080: 65c8 6dd8 51ce b6bf 30fe 1eff 6b82 cebf
00000090: f02f 41bc 338a babf 7c98 717d 4065 a73f
000000a0: ac14 ed9d a861 b33f 3f46 d679 374c a53f
000000b0: f2f2 b524 b094 88bf 18f5 4caa e92d ae3f
000000c0: 3883 e0d6 9ba5 aabf ab41 d48a 908c b23f
000000d0: e2ed b04f 656d d13f 8762 2eb7 00ef bb3f
000000e0: 4730 961c da43 7cbf 40d5 5896 b85e c23f
000000f0: a9f9 d7e1 d500 913f 3100 d59c 8811 9a3f
00000100: bccf 02c5 8914 af3f 7305 f580 cffd 903f
00000110: d551 b58f 4bac acbf d362 1e97 b720 b2bf
00000120: 5676 0d79 412f bb3f 5d7a 2049 ae53 b73f
00000130: c179 13fa cdd3 bc3f 9a2c 331c 7db3 b63f
00000140: b952 1f7b 1ec9 b5bf e1dc 451b 03c5 b13f
00000150: 9262 237f d2ee 8abf 0a73 6752 9f1d c83f
00000160: ae7c 923d 61dd bbbf 6d3d e6f5 a81d ae3f
00000170: ca39 a236 019a a23f 0ebc 787c a8ac 9a3f
00000180: 4bf1 e7aa fcb7 c53f 9549 bd09 da5b a8bf
00000190: 0fe7 f156 5940 c6bf 7ebc 0cbe c80b a5bf
000001a0: 4cd6 0a3f 1122 cb3f a12f f0d9 ffd4 a03f
000001b0: 85e7 4e28 b8d5 b13f 1ca7 f1bb b695 473f
000001c0: 913a a1e4 00d0 853f 6f0e 8900 764b 983f
000001d0: 05f7 be66 2f51 693f 5205 a522 9b37 c73f
000001e0: bc15 98ac 9a7f aebf 72c3 5453 7b50 d13f
000001f0: e2b5 591f a64c c03f 9ae0 af81 1e01 aabf
00000200: 7fa2 8b09 a831 c03f b3f5 c090 d84e b0bf
00000210: f3c1 bf0b 8354 5c3f 9aef 8918 3374 81bf
00000220: 2fe4 7002 3d32 b63f 9881 e02b 1c29 b03f
00000230: adf2 ec46 9b08 dc3f dc27 9bad dd17 e03f
00000240: d2c3 05f9 7d03 dc3f cdc2 1539 c541 da3f
00000250: 1a74 e62e cf08 e43f a6d8 fc3a 7a6a d93f
00000260: e45a 824f d880 db3f 62be c401 6802 de3f
00000270: 4587 512b 1896 e63f 575e 296f 72fa da3f
00000280: cfaa 9478 30a0 d13f ecdb c8a3 ee9c c43f
00000290: a44c 49a8 4ef3 d43f dc1b 4697 be70 d33f
000002a0: 225d eb2b 6244 d43f 4086 1cd4 5e13 dc3f
000002b0: cd48 d4c3 0ff0 d43f bf8d 4a9e 85e2 d33f
000002c0: 279c d5c9 fd78 f73f 19fc c4a4 065b df3f
000002d0: 2d64 2cc1 26dd d33f 92a5 c02a a680 d53f
000002e0: ecf6 67bb 01a8 dc3f 9e58 3600 4d69 d43f
000002f0: 587b 50a8 145e db3f ed28 505d c193 e03f
00000300: 7c06 92da 5c5c d93f 8c2a b53d 71ed d83f
00000310: 5299 ecbf e48e d93f 9f2a 54f5 a05f d93f
00000320: 1c66 e71f 96b5 d83f 63a7 04aa 5564 d43f
00000330: c4b1 6526 c106 d93f 8c45 7662 6ccf d53f
00000340: e577 157f 52da f83f

energy_vqeKE f8 []
-1.2218099321869882
00000000: cbbc 4a92 888c f3bf

fidelity_vqeKE f8 []
0.4595961699139146
00000000: 746a c90d 066a dd3f
